OPTIMIZERAdam (
Parameter Group 0
    amsgrad: False
    betas: (0.9, 0.999)
    eps: 1e-08
    lr: 0.005
    weight_decay: 0
)MODELAlexNet(
  (features): Sequential(
    (0): Conv2d(3, 64, kernel_size=(11, 11), stride=(4, 4), padding=(2, 2))
    (1): ReLU(inplace=True)
    (2): MaxPool2d(kernel_size=3, stride=2, padding=0, dilation=1, ceil_mode=False)
    (3): Conv2d(64, 192, kernel_size=(5, 5), stride=(1, 1), padding=(2, 2))
    (4): ReLU(inplace=True)
    (5): MaxPool2d(kernel_size=3, stride=2, padding=0, dilation=1, ceil_mode=False)
    (6): Conv2d(192, 384, kernel_size=(3, 3), stride=(1, 1), padding=(1, 1))
    (7): ReLU(inplace=True)
    (8): Conv2d(384, 256, kernel_size=(3, 3), stride=(1, 1), padding=(1, 1))
    (9): ReLU(inplace=True)
    (10): Conv2d(256, 256, kernel_size=(3, 3), stride=(1, 1), padding=(1, 1))
    (11): ReLU(inplace=True)
    (12): MaxPool2d(kernel_size=3, stride=2, padding=0, dilation=1, ceil_mode=False)
  )
  (avgpool): AdaptiveAvgPool2d(output_size=(6, 6))
  (classifier): Sequential(
    (0): Dropout(p=0.5, inplace=False)
    (1): Linear(in_features=9216, out_features=4096, bias=True)
    (2): ReLU(inplace=True)
    (3): Dropout(p=0.5, inplace=False)
    (4): Linear(in_features=4096, out_features=4096, bias=True)
    (5): ReLU(inplace=True)
    (6): Linear(in_features=4096, out_features=1000, bias=True)
  )
)Train Epoch: 1 [0/11440 (0%)]	Loss: 6.905820Train Epoch: 1 [500/11440 (4%)]	Loss: 6.236189Train Epoch: 1 [1000/11440 (9%)]	Loss: 4.440500Train Epoch: 1 [1500/11440 (13%)]	Loss: 3.417500Train Epoch: 1 [2000/11440 (17%)]	Loss: 3.309190Train Epoch: 1 [2500/11440 (22%)]	Loss: 3.311647Train Epoch: 1 [3000/11440 (26%)]	Loss: 3.305491Train Epoch: 1 [35
…
3 [4500/11440 (39%)]	Loss: 3.266106Train Epoch: 13 [5000/11440 (43%)]	Loss: 3.258780Train Epoch: 13 [5500/11440 (48%)]	Loss: 3.263492Train Epoch: 13 [6000/11440 (52%)]	Loss: 3.257375Train Epoch: 13 [6500/11440 (57%)]	Loss: 3.257936Train Epoch: 13 [7000/11440 (61%)]	Loss: 3.254764Train Epoch: 13 [7500/11440 (65%)]	Loss: 3.266334Train Epoch: 13 [8000/11440 (70%)]	Loss: 3.258686Train Epoch: 13 [8500/11440 (74%)]	Loss: 3.261515OPTIMIZERAdam (
Parameter Group 0
    amsgrad: False
    betas: (0.9, 0.999)
    eps: 1e-08
    lr: 0.005
    weight_decay: 0
)MODELAlexNet(
  (features): Sequential(
    (0): Conv2d(3, 64, kernel_size=(11, 11), stride=(4, 4), padding=(2, 2))
    (1): ReLU(inplace=True)
    (2): MaxPool2d(kernel_size=3, stride=2, padding=0, dilation=1, ceil_mode=False)
    (3): Conv2d(64, 192, kernel_size=(5, 5), stride=(1, 1), padding=(2, 2))
    (4): ReLU(inplace=True)
    (5): MaxPool2d(kernel_size=3, stride=2, padding=0, dilation=1, ceil_mode=False)
    (6): Conv2d(192, 384, kernel_size=(3, 3), stride=(1, 1), padding=(1, 1))
    (7): ReLU(inplace=True)
    (8): Conv2d(384, 256, kernel_size=(3, 3), stride=(1, 1), padding=(1, 1))
    (9): ReLU(inplace=True)
    (10): Conv2d(256, 256, kernel_size=(3, 3), stride=(1, 1), padding=(1, 1))
    (11): ReLU(inplace=True)
    (12): MaxPool2d(kernel_size=3, stride=2, padding=0, dilation=1, ceil_mode=False)
  )
  (avgpool): AdaptiveAvgPool2d(output_size=(6, 6))
  (classifier): Sequential(
    (0): Dropout(p=0.5, inplace=False)
    (1): Linear(in_features=9216, out_features=4096, bias=True)
    (2): ReLU(inplace=True)
    (3): Dropout(p=0.5, inplace=False)
    (4): Linear(in_features=4096, out_features=4096, bias=True)
    (5): ReLU(inplace=True)
    (6): Linear(in_features=4096, out_features=26, bias=True)
  )
)Train Epoch: 1 [0/11440 (0%)]	Loss: 2.007670Train Epoch: 1 [500/11440 (4%)]	Loss: 1.855598Train Epoch: 1 [1000/11440 (9%)]	Loss: 1.935098Train Epoch: 1 [1500/11440 (13%)]	Loss: 1.497775Train Epoch: 1 [2000/11440 (17%)]	Loss: 1.367703Train Epoch: 1 [2500/11440 (22%)]	Loss: 1.320529Train Epoch: 1 [3000/11440 (26%)]	Loss: 1.433877Train Epoch: 1 [3500
…
7000/11440 (61%)]	Loss: 1.089592Train Epoch: 3 [7500/11440 (65%)]	Loss: 0.791906Train Epoch: 3 [8000/11440 (70%)]	Loss: 0.978245Train Epoch: 3 [8500/11440 (74%)]	Loss: 1.069474Train Epoch: 3 [9000/11440 (78%)]	Loss: 0.819346Train Epoch: 3 [9500/11440 (83%)]	Loss: 0.796128Train Epoch: 3 [10000/11440 (87%)]	Loss: 0.893805Train Epoch: 3 [10500/11440 (91%)]	Loss: 0.896849Train Epoch: 3 [11000/11440 (96%)]	Loss: 1.063843OPTIMIZERAdam (
Parameter Group 0
    amsgrad: False
    betas: (0.9, 0.999)
    eps: 1e-08
    lr: 0.001
    weight_decay: 0
)MODELCustomNet_small(
  (features): Sequential(
    (0): Conv2d(3, 40, kernel_size=(5, 5), stride=(2, 2), padding=(3, 3), bias=False)
    (1): ReLU(inplace=True)
    (2): MaxPool2d(kernel_size=3, stride=2, padding=1, dilation=1, ceil_mode=False)
    (3): Conv2d(40, 20, kernel_size=(3, 3), stride=(1, 1), padding=(1, 1), bias=False)
    (4): ReLU(inplace=True)
    (5): Conv2d(20, 60, kernel_size=(3, 3), stride=(1, 1), padding=(1, 1), bias=False)
    (6): ReLU(inplace=True)
  )
  (avgpool): AdaptiveAvgPool2d(output_size=(4, 4))
  (classifier): Sequential(
    (0): Dropout(p=0.5, inplace=False)
    (1): Linear(in_features=960, out_features=500, bias=True)
    (2): ReLU(inplace=True)
    (3): Dropout(p=0.5, inplace=False)
    (4): Linear(in_features=500, out_features=200, bias=True)
    (5): ReLU(inplace=True)
    (6): Linear(in_features=200, out_features=26, bias=True)
  )
)epoch: 3
Test set: Average loss: 0.0022, Accuracy: 2520/2860 (88%)
class    total     guessed    accuracy    f1-scorea        110         91        0.745         0.815b        110         102        0.845         0.877c        110         96        0.764         0.816d        110         107        0.945         0.958e        110         121       
…
