OPTIMIZERAdam (
Parameter Group 0
    amsgrad: False
    betas: (0.9, 0.999)
    eps: 1e-08
    lr: 0.001
    weight_decay: 0
)MODELAlexNet(
  (features): Sequential(
    (0): Conv2d(3, 64, kernel_size=(11, 11), stride=(4, 4), padding=(2, 2))
    (1): ReLU(inplace=True)
    (2): MaxPool2d(kernel_size=3, stride=2, padding=0, dilation=1, ceil_mode=False)
    (3): Conv2d(64, 192, kernel_size=(5, 5), stride=(1, 1), padding=(2, 2))
    (4): ReLU(inplace=True)
    (5): MaxPool2d(kernel_size=3, stride=2, padding=0, dilation=1, ceil_mode=False)
    (6): Conv2d(192, 384, kernel_size=(3, 3), stride=(1, 1), padding=(1, 1))
    (7): ReLU(inplace=True)
    (8): Conv2d(384, 256, kernel_size=(3, 3), stride=(1, 1), padding=(1, 1))
    (9): ReLU(inplace=True)
    (10): Conv2d(256, 256, kernel_size=(3, 3), stride=(1, 1), padding=(1, 1))
    (11): ReLU(inplace=True)
    (12): MaxPool2d(kernel_size=3, stride=2, padding=0, dilation=1, ceil_mode=False)
  )
  (avgpool): AdaptiveAvgPool2d(output_size=(6, 6))
  (classifier): Sequential(
    (0): Dropout(p=0.5, inplace=False)
    (1): Linear(in_features=9216, out_features=4096, bias=True)
    (2): ReLU(inplace=True)
    (3): Dropout(p=0.5, inplace=False)
    (4): Linear(in_features=4096, out_features=4096, bias=True)
    (5): ReLU(inplace=True)
    (6): Linear(in_features=4096, out_features=26, bias=True)
  )
)Train Epoch: 1 [0/11440 (0%)]	Loss: 3.258775Train Epoch: 1 [500/11440 (4%)]	Loss: 3.294552Train Epoch: 1 [1000/11440 (9%)]	Loss: 3.257364Train Epoch: 1 [1500/11440 (13%)]	Loss: 3.263529Train Epoch: 1 [2000/11440 (17%)]	Loss: 3.264476Train Epoch: 1 [2500/11440 (22%)]	Loss: 3.290492Train Epoch: 1 [3000/11440 (26%)]	Loss: 3.253181Train Epoch: 1 [3500
…
    0.0y        110         0        0.0         0.0z        110         0        0.0         0.0
Train Epoch: 4 [0/11440 (0%)]	Loss: 3.259081Train Epoch: 4 [500/11440 (4%)]	Loss: 3.257532Train Epoch: 4 [1000/11440 (9%)]	Loss: 3.256131Train Epoch: 4 [1500/11440 (13%)]	Loss: 3.257358Train Epoch: 4 [2000/11440 (17%)]	Loss: 3.261685Train Epoch: 4 [2500/11440 (22%)]	Loss: 3.257186Train Epoch: 4 [3000/11440 (26%)]	Loss: 3.255671OPTIMIZERAdam (
Parameter Group 0
    amsgrad: False
    betas: (0.9, 0.999)
    eps: 1e-08
    lr: 0.005
    weight_decay: 0
)MODELAlexNet(
  (features): Sequential(
    (0): Conv2d(3, 64, kernel_size=(11, 11), stride=(4, 4), padding=(2, 2))
    (1): ReLU(inplace=True)
    (2): MaxPool2d(kernel_size=3, stride=2, padding=0, dilation=1, ceil_mode=False)
    (3): Conv2d(64, 192, kernel_size=(5, 5), stride=(1, 1), padding=(2, 2))
    (4): ReLU(inplace=True)
    (5): MaxPool2d(kernel_size=3, stride=2, padding=0, dilation=1, ceil_mode=False)
    (6): Conv2d(192, 384, kernel_size=(3, 3), stride=(1, 1), padding=(1, 1))
    (7): ReLU(inplace=True)
    (8): Conv2d(384, 256, kernel_size=(3, 3), stride=(1, 1), padding=(1, 1))
    (9): ReLU(inplace=True)
    (10): Conv2d(256, 256, kernel_size=(3, 3), stride=(1, 1), padding=(1, 1))
    (11): ReLU(inplace=True)
    (12): MaxPool2d(kernel_size=3, stride=2, padding=0, dilation=1, ceil_mode=False)
  )
  (avgpool): AdaptiveAvgPool2d(output_size=(6, 6))
  (classifier): Sequential(
    (0): Dropout(p=0.5, inplace=False)
    (1): Linear(in_features=9216, out_features=4096, bias=True)
    (2): ReLU(inplace=True)
    (3): Dropout(p=0.5, inplace=False)
    (4): Linear(in_features=4096, out_features=4096, bias=True)
    (5): ReLU(inplace=True)
    (6): Linear(in_features=4096, out_features=26, bias=True)
  )
)Train Epoch: 1 [0/11440 (0%)]	Loss: 3.258775Train Epoch: 1 [500/11440 (4%)]	Loss: 3.562508Train Epoch: 1 [1000/11440 (9%)]	Loss: 3.858306Train Epoch: 1 [1500/11440 (13%)]	Loss: 3.329595Train Epoch: 1 [2000/11440 (17%)]	Loss: 3.253776Train Epoch: 1 [2500/11440 (22%)]	Loss: 3.285408OPTIMIZERAdam (
Parameter Group 0
    amsgrad: False
    betas: (0.9, 0.999)
    eps: 1e-08
    lr: 0.0005
    weight_decay: 0
)MODELAlexNet(
  (features): Sequential(
    (0): Conv2d(3, 64, kernel_size=(11, 11), stride=(4, 4), padding=(2, 2))
    (1): ReLU(inplace=True)
    (2): MaxPool2d(kernel_size=3, stride=2, padding=0, dilation=1, ceil_mode=False)
    (3): Conv2d(64, 192, kernel_size=(5, 5), stride=(1, 1), padding=(2, 2))
    (4): ReLU(inplace=True)
    (5): MaxPool2d(kernel_size=3, stride=2, padding=0, dilation=1, ceil_mode=False)
    (6): Conv2d(192, 384, kernel_size=(3, 3), stride=(1, 1), padding=(1, 1))
    (7): ReLU(inplace=True)
    (8): Conv2d(384, 256, kernel_size=(3, 3), stride=(1, 1), padding=(1, 1))
    (9): ReLU(inplace=True)
    (10): Conv2d(256, 256, kernel_size=(3, 3), stride=(1, 1), padding=(1, 1))
    (11): ReLU(inplace=True)
    (12): MaxPool2d(kernel_size=3, stride=2, padding=0, dilation=1, ceil_mode=False)
  )
  (avgpool): AdaptiveAvgPool2d(output_size=(6, 6))
  (classifier): Sequential(
    (0): Dropout(p=0.5, inplace=False)
    (1): Linear(in_features=9216, out_features=4096, bias=True)
    (2): ReLU(inplace=True)
    (3): Dropout(p=0.5, inplace=False)
    (4): Linear(in_features=4096, out_features=4096, bias=True)
    (5): ReLU(inplace=True)
    (6): Linear(in_features=4096, out_features=26, bias=True)
  )
)Train Epoch: 1 [0/11440 (0%)]	Loss: 3.258775Train Epoch: 1 [500/11440 (4%)]	Loss: 3.255728Train Epoch: 1 [1000/11440 (9%)]	Loss: 3.263320Train Epoch: 1 [1500/11440 (13%)]	Loss: 3.260431Train Epoch: 1 [2000/11440 (17%)]	Loss: 3.251579Train Epoch: 1 [2500/11440 (22%)]	Loss: 3.221226Train Epoch: 1 [3000/11440 (26%)]	Loss: 3.206172Train Epoch: 1 [3500
…
